vaja2/model_SuperRes.pt (torch, 232975 bytes, 5 tensors)

weight f4 [64, 1, 9, 9]
00000000: 43f7 aa3d 8737 53bd 8295 49bd cf0a 20bd
00000010: d493 923c 16fb 903d 6365 cabd 6446 563d
00000020: b17c e8bd 3611 393d 4001 83bc 9078 9b3d
00000030: af82 193d e0d1 04be a8d4 2a3d 3ee3 2abd
00000040: 0df2 b33d 6b07 063d 4a72 9d3d f8f2 803d
00000050: 5592 6a3d 5a12 e1bd d230 343d b79b 62bd
00000060: 2ad4 4c3c 8029 cd3d 49da 573d 4759 553a
00000070: 5b10 f43c bc81 1cbd 5b68 19be c530 55bc
00000080: 8471 a7bd 924a 42bd 3703 93bd 14bb a6bd
00000090: 85aa 91bd 80b7 f93c b26a c23d e0a7 5bbd
000000a0: c0e0 cbbd c225 da3d 6680 a83d 723b ddbd
000000b0: 6fd8 5b3d 2fce c8bd 3ed7 d83c 3855 0b3e
000000c0: 0f04 67bd 34b9 a7bd 0b24 433d 0b64 ab3d
000000d0: 60a4 4cbd 1156 523d 4581 5cbd cac7 cbbc
000000e0: a04a babb 7aaa fd3c a227 d4bd 79b3 af3c
000000f0: 78a5 22bd 8caf 37bb 69ce 8bbd 62b4 1a3c
00000100: 0ad0 1cbd 3d88 8e3d f748 42bc 2786 933c
00000110: 2465 343c 210e 17bd 2aa5 49bd 3423 073d
00000120: 5753 4abd fa86 6f3c ad94 c4bd 07ce d53d
00000130: e544 afbc e996 d23c 8402 c3bc 092d 6cbc
00000140: 69cf 893d ba84 fc3b 0cd1 8ebd ee5c 5d3d
00000150: 7ae1 a33d 2e67 763d 4774 babd dd8f fcbc
00000160: 0359 033d e117 b1bd b4b9 6cbd 9b16 9bbd
00000170: ddfa 5b3d 4b1f dc3c a19e 0b3d 09df dbbd
00000180: e6f7 c13d fb71 31bd d67a 9f3d c5e2 7b3c
00000190: 048f dabd 5a40 c33d d169 8a3d 6863 873c
000001a0: 39e3 96bc 3ddc 8b3d 7109 c5bd a47e 983d
000001b0: 1179 99bd 8feb 4cbc b357 443e b9b1 2b3c
000001c0: fc6e 49bd 3521 e0bc 652a a3bd e2d5 19bd
000001d0: 5b4b a4bc 7dca 2bbc 3464 12bd acf7 a03d
000001e0: 33af 393e 8d22 3b3e 5a51 b63d d755 65bd
000001f0: 7567 833c d1bb fc3c ac35 19be 8ae3 86be
00000200: 3640 b6bd d43d 58bc d8ed 9c3c a2ef cabc
00000210: 25ed 0d3d 8fad 8ebd c3a1 453b 3029 7bbe
00000220: e9ea 5cbe cdba 9fbc 1461 01be 3a95 0ebe
00000230: b79a 0ebd 4ae6 6bbd 2f34 93bd 51b6 ac3c
00000240: 5884 26be dc43 94be 1b6f d7bd fffe 09be
00000250: 36cc bdbd ed19 cabc e53e 223d e4ff 6d3d
00000260: 46bb bd3d 8b00 72be 710f 29be 4034 8bbc
00000270: 71d9 ffbd 95cb 0abd 8c19 fcbc f0b7 293b
00000280: e392 303d 2342 853c 34ad 0ebd a176 8bbc
00000290: 7f25 6bbd e3d1 95bd f5f9 8abd c22a 9c3d
000002a0: 0644 0cbd d62a 32bc 0bb2 32bd 0f3b ad3c
000002b0: 0f9d 53bd 15df 94bc 7d23 943c 6da2 1d3d
000002c0: fc82 713d d4d2 a23d dc76 50bd 2b69 8ebc
000002d0: aa12 fc3c aebc a03d fc02 53bd c68a 41bd
000002e0: 6a87 153e 22d0 ba3d f570 d1bd c1c7 1cbd
000002f0: 5c48 c23d dca8 aa3d 4cce 41bd 503f 39bd
00000300: be5e 083d b434 ce3d bda5 363d 0c4f d8bd
00000310: 24fc 4bbd 62bf 413d 3a5f d33b 8e39 e8bc
00000320: c068 0a3d 5d33 9a3c 47f3 0abd 5561 f3bc
00000330: e043 debd ed71 433d 58dc 5dbd f041 0e3d
00000340: 8346 f73b 4632 57bd 158d 963d 1eab b43c
00000350: 53b0 b5bd 67c8 9ebd 53d6 f73d a808 c53c
00000360: 0528 37bd a1e0 a13d 8d4b 893d 3f38 9e3d
00000370: c78c af3b b305 e93c af91 0c3d 32d8 03bd
00000380: 17b1 87bc 936e 82bd fa6c 91bd 47dc 453b
00000390: 646f 46bc 0aab 86bd 2e1b c4bc 06eb f83d
000003a0: 686e b8bc 5211 6a3d ecb4 9c3d 074f 89bd
000003b0: 79df 8ebb af01 4e3c 6d49 a8bd 209e f73c
000003c0: dfee dc3d cd4b 43bd 1479 adbd 28d2 053d
000003d0: 5846 ccbc f87b c33d cc26 22bd 3944 c23b
000003e0: 4d10 10be 9645 313c 97d6 213d 1a05 d63b
000003f0: 1466 e33d 9880 0fbd 2356 88bc 4d6a 2e3d
0.08347943 -0.051566627 -0.049214847 -0.039072808 0.017892756 0.07079141 -0.09882619 0.052313223
-0.11351908 0.04518243 -0.015991807 0.07591355 0.037478145 -0.12970686 0.04170671 -0.04172062
0.08786402 0.032721918 0.076878145 0.062963426 0.05726846 -0.109898284 0.04399187 -0.055324282
0.012501756 0.10017681 0.052698407 0.00081386085 0.029792955 -0.03820966 -0.14981215 -0.013012116
-0.08175948 -0.047434397 -0.071783476 -0.08141151 -0.07112602 0.030483007 0.09493007 -0.053626895
-0.09954977 0.10651733 0.08227615 -0.10802354 0.053673204 -0.098049514 0.026469823 0.13606727
-0.056400355 -0.081896216 0.047641795 0.08368691 -0.049961448 0.05135161 -0.05383422 -0.02487554
-0.0056851655 0.030965079 -0.10359122 0.021447884 -0.039708585 -0.0028028218 -0.06826479 0.009442421
-0.03828434 0.06959579 -0.0118582165 0.018008305 0.011010442 -0.03687871 -0.04922978 0.032992557
-0.049395885 0.014619583 -0.0959867 0.10439687 -0.021395156 0.025706725 -0.02380491 -0.014415034
0.067290135 0.007706252 -0.06973466 0.054043703 0.080019906 0.060156994 -0.091042094 -0.030830318
0.03206731 -0.08647133 -0.057794288 -0.07572671 0.05370604 0.02687039 0.034086827 -0.107359
0.09471111 -0.04332159 0.07787101 0.01537389 -0.10671809 0.095337585 0.06758464 0.016526893
-0.018418895 0.068291165 -0.096209414 0.0744603 -0.07493795 -0.012507333 0.1917408 0.010479384
-0.04917811 -0.027359584 -0.079670705 -0.03755749 -0.020055464 -0.010485289 -0.035740092 0.0785974
0.1813324 0.18274899 0.08902235 -0.055990066 0.016040543 0.030851277 -0.1496188 -0.26345474
-0.08898966 -0.013198335 0.019156381 -0.024772469 0.034649987 -0.069666974 0.0030156232 -0.2452743
-0.21573986 -0.019498253 -0.12634689 -0.13924113 -0.034815516 -0.057592668 -0.071876876 0.021083029
-0.16261423 -0.28958023 -0.105192386 -0.1347618 -0.09267466 -0.024670566 0.039610762 0.058105364
0.09264235 -0.2363302 -0.16509797 -0.016992688 -0.124926455 -0.033885557 -0.0307739 0.0025896989
0.043108832 0.016266888 -0.034833148 -0.01702434 -0.057408806 -0.07315423 -0.06785957 0.07625343
-0.03424456 -0.010874471 -0.043626826 0.021146325 -0.051663455 -0.01817278 0.018083328 0.03848498
0.058962807 0.079503685 -0.050894603 -0.017384132 0.030770618 0.07848488 -0.051516518 -0.047251485
0.14602438 0.091217294 -0.10226623 -0.038276438 0.09486458 0.083329886 -0.04731588 -0.045226395
0.03329348 0.10068646 0.044591654 -0.10561952 -0.049801007 0.047301657 0.006450561 -0.028347757
0.033791304 0.01882332 -0.033923414 -0.029709497 -0.1085279 0.04771607 -0.054165214 0.03473085
0.0075462474 -0.05253818 0.07351128 0.022054251 -0.08871522 -0.077530675 0.12101426 0.02405198
-0.0447159 0.07904173 0.06703863 0.07725572 0.005357358 0.0284451 0.034318622 -0.0321886
-0.016563935 -0.063687466 -0.07100864 0.003019111 -0.0121115185 -0.06575592 -0.023938742 0.12154202
-0.022513583 0.057145424 0.076516956 -0.067045264 -0.004360136 0.012573644 -0.0821713 0.030226767
0.107877485 -0.04767971 -0.084703594 0.032671124 -0.024935886 0.095451295 -0.03958778 0.005928543
-0.14068718 0.010819813 0.03951129 0.00653137 0.11103454 -0.035034746 -0.016642636 0.042581845

bias f4 [64]
00000000: 29ae 993d a514 8ebd c4b7 f2bb 2957 b73c
00000010: 607b 04bb 9102 bf3b f9f3 3dbc c1ec 98bd
00000020: fbcd e03b ed4a 7abd 250b 79bc f6ae 9cbc
00000030: 377f 27bd 28a3 8ebd d225 893d 04c8 7e3c
00000040: e2f8 a8ba f648 863b 21de e83b a6fa 0e3c
00000050: c0fa 023c 55ff 11bc 1cc2 c6bd f14e d13c
00000060: e5b9 36bd ef8e 5dbc 1aed b9bc bc9b de3b
00000070: 3c57 c9bd 53b4 f43c 3108 ab3c 579c 653d
00000080: 191f d0bd 7e58 b1bc 4ecc 53bc cdc8 24bb
00000090: b0b6 9d3c 2165 dfbd ac2a a0bc bd20 e8bc
000000a0: 4003 36bd ae64 1e3b e636 acbc c517 b0bb
000000b0: 064a 893b 4666 1abe 5fa2 23bd ab00 8abd
000000c0: 2b22 e5ba 1760 e5bd 4333 46bc 0ad6 22bc
000000d0: 8d7e 07bb 57ca 843c 8c52 acbd a33b 82bd
000000e0: 3281 12be 78af 083d 7d8d bc3c c9a7 f1bd
000000f0: 4522 babd 3de8 373d 3e3f 35be 74f3 aa3a
0.075039215 -0.069375314 -0.0074071605 0.022380428 -0.0020215139 0.0058291634 -0.011593812 -0.07467032
0.0068604923 -0.06110661 -0.015200411 -0.019126397 -0.040892806 -0.06964713 0.06696667 0.015550617
-0.0012891556 0.004098053 0.007106558 0.008726751 0.007994354 -0.008910974 -0.09704992 0.025550338
-0.044610877 -0.013522848 -0.022696067 0.0067934673 -0.09831092 0.029871142 0.02087793 0.0560573
-0.101621814 -0.021648642 -0.012927128 -0.00251441 0.019252151 -0.10907961 -0.019551598 -0.028335923
-0.044436693 0.0024168896 -0.021022271 -0.0053739273 0.0041897325 -0.15078077 -0.03994977 -0.06738409
-0.0017481496 -0.11199968 -0.012097183 -0.009938726 -0.0020674795 0.016209764 -0.08414182 -0.06359031
-0.14307097 0.033370465 0.023016686 -0.117995806 -0.09088568 0.044899214 -0.17699906 0.0013042525

weight f4 [32, 64, 5, 5]
00000000: 381a af3c 1706 61bd 2943 52bd e9a1 89bd
00000010: a139 58bc 73ff a83d 1a60 79bc 5b0f 1abc
00000020: 6709 843a 4fe5 373c c27d 1d3d 9454 4fbd
00000030: 2911 37bc 6762 823c 7d5d b33c f987 c13c
00000040: 3233 44bd 6c23 23bb 3fbd f83c a404 823d
00000050: c1e0 653d 786a 983b a558 bd3c aeac 8c3d
00000060: f27f ad3d 28d6 4abd 9425 68bd d745 c8bd
00000070: 817a ddbd 28ae 51be 1204 5f3b d6ae 75b9
00000080: f158 e9bc 76f8 8ebd 9c23 18be 379b 493d
00000090: 0752 8d3c 6e49 a13d f2f2 91bc 7c6b 8cbd
000000a0: b13d 0cbc c8fb e7bc dc22 313d 175e c33c
000000b0: 21db 933b dee5 b83c 3e70 983b 4328 303c
000000c0: de0c 09bd 44ed 49bd ceeb b6bc 087a 8a3b
000000d0: 45e0 ccba 0ca6 2b3d af34 28bc 2549 62bd
000000e0: b9ba c6bb b4c3 183c 927b 963d f4e2 17ba
000000f0: 8142 8bbd d037 92ba 9fba fe3c c919 0c3d
00000100: b83f 1fbd 4f62 00bd 8726 ed3b b668 323c
00000110: eeb5 50bd c4f8 e7bc b1dd 48bc c142 943d
00000120: a428 b33c 0f6c 00be 5ea2 79bd 8c7b 55bd
00000130: 7ead 93bd c9d8 b7bd 5f66 693c fbf1 813d
00000140: b614 2dbd 34dd 92bd c44c a0bd 3cab 49bc
00000150: 2f9e 9b3d f0c5 60bc c674 0ebd a08d 56bd
00000160: fd4c 083c bd7a 843d 5dff 20bd 137f bf3a
00000170: a98a 3d3c 31a4 723c 539a b63d 25b3 edbc
00000180: d383 823c a4fb 8bbc bc0e d13a 7bf3 c53d
00000190: ae80 dbbc db9e 2fbd 7905 91bd 90e3 a13c
000001a0: 420f 053d 540d 29bb 50b1 c9bc db66 84bd
000001b0: 763d 033d b13a 313d 4e44 b1bc 6ee8 34bd
000001c0: 4af6 ccbc f534 593d 445c 573d b0b5 73bd
000001d0: 3204 223c b057 433c 8947 1c3c 47ab c23a
000001e0: 057f 6dbd 092c ebbc 2dac 383c 1281 6cbd
000001f0: 5ca9 82bd ed35 5b3c 9f65 193c f223 023d
00000200: 6654 2c3c 7447 413d 2815 053d 39db 2d3d
00000210: d98a 22bc cea9 eebc 3a68 373c 4658 d83c
00000220: 91b0 2f3d e20a 0abc 14f3 2abc 109a 183c
00000230: adca 4b3b 103a 323d 940e cdbc 50b3 2dbc
00000240: 776f ae3a 8f45 cb3c 6068 c13c 4e91 a0bb
00000250: 2677 e5bc 82ad aa3b 72f2 41bd 55e2 f83c
00000260: 298e 583c a93c 493c 9c3a 193c 0b55 71bd
00000270: df31 b9bb 0716 4a3d 8479 6d3b 4c3a ca3b
00000280: 97fd 4bbd e9a1 5abc 2a3a 253d 4c89 bb3c
00000290: 10a2 ea3c 5f7f 92bd 74c4 17bd bee0 f0bc
000002a0: a6b6 163d 4b71 233c c2a0 05be 555a 40bd
000002b0: f03d e63c cbc8 823c bb64 9b3c 37c4 74bc
000002c0: 9d3b 493d a8e1 bebd 17b9 9dbb a5aa 2c3d
000002d0: 890d 3fbc 1c4f 2b3d 307c 8bbd c982 093c
000002e0: 9c34 c13c e559 1d3c d8b5 25bc bbaa 54bd
000002f0: 30f4 bc3c 6851 c5bb cda7 b7bc c4ff 44bd
00000300: 1d8d 98bd a1fe 323c 22ab 7f3c 735c 1fbd
00000310: bb4d 29bd d871 81bc a2aa a53c 97fb b33a
00000320: 1c12 96bd 6599 6dbc 7cef f9bc a659 5bbc
00000330: ee30 a23c 4be1 90bd 3e60 8bbc 4f11 ee3b
00000340: 7ac7 25bd 384d 5b3d 34a0 4fbd f129 60bd
00000350: d14e af3b 821e 09bd fede edbb 2fd7 e6bc
00000360: 42a0 c7bc f97d c93c 6ff1 80bd dbab 37bc
00000370: 6c1c c53c 71ef ddbc ff8a e13b 23ee 2bbd
00000380: 5a36 5abd 69c5 d03c 76f7 9f3c 2675 36bc
00000390: 834a 1b3c b3bb 9abc 9b3e c33c a7f9 a7bc
000003a0: 707b b83c a4c8 cf3b ab1e b83a b113 943c
000003b0: 91de c5bc 6db1 ac3c a887 013c 9599 a5bb
000003c0: 6874 98bb cb80 83bc c85c 543c 5567 e8b9
000003d0: fab7 edbb 793c 41bc c1de 59ba 2b6c 0c3c
000003e0: d1fd 31bc 5cab 8c3c a9a4 e5bd 3f0d 8abd
000003f0: 2555 82bc 011b e7bd d13a 1dbe cabb 22bd
0.021374807 -0.05493745 -0.05133358 -0.06720335 -0.013197334 0.08251848 -0.015220666 -0.009403075
0.0010073603 0.011224105 0.03845001 -0.05061777 -0.011173525 0.015916063 0.021895165 0.023624407
-0.047900386 -0.002489294 0.030363677 0.063485414 0.056122545 0.004651364 0.023113558 0.068688735
0.08471669 -0.04952064 -0.056676462 -0.09778946 -0.108143814 -0.20476592 0.0034029526 -0.00023430152
-0.028484793 -0.06980984 -0.14857334 0.04922029 0.017251028 0.07875334 -0.01781604 -0.068564385
-0.00855963 -0.0283183 0.043246135 0.023848576 0.004512206 0.022570547 0.004652052 0.010751787
-0.033459537 -0.04929854 -0.022329237 0.004225973 -0.0015630802 0.0419064 -0.010266467 -0.055245537
-0.0060647395 0.009324003 0.07347788 -0.00057940115 -0.06799794 -0.001115555 0.031094847 0.03420428
-0.038879126 -0.031343754 0.007237259 0.010889223 -0.05095475 -0.028316863 -0.012259887 0.07239295
0.021869965 -0.12541221 -0.06094586 -0.052119777 -0.072108254 -0.08976895 0.014245599 0.06344982
-0.04225608 -0.071710974 -0.07827142 -0.012308892 0.075985305 -0.013719067 -0.034779333 -0.052381158
0.008319137 0.06468723 -0.039306033 0.0014610015 0.011568704 0.014809654 0.08916154 -0.029016087
0.015932 -0.017087765 0.0015949826 0.09665581 -0.026794758 -0.042876106 -0.07081122 0.01976183
0.032485254 -0.0025795298 -0.024620682 -0.064649306 0.032041036 0.043268863 -0.021639016 -0.044166975
-0.025019784 0.05302902 0.052578226 -0.059499443 0.009888696 0.011922762 0.00953854 0.001485207
-0.057982463 -0.028707521 0.011271519 -0.05774028 -0.06379959 0.013379556 0.009362607 0.03177256
0.010518169 0.047187284 0.03249088 0.042445395 -0.009920799 -0.029133704 0.011194283 0.02640928
0.042892996 -0.008425446 -0.010433931 0.009314075 0.0031096146 0.043512404 -0.025031365 -0.010601833
0.0013308366 0.024813442 0.02360934 -0.004900134 -0.028010916 0.005208672 -0.047350354 0.030381361
0.013217487 0.012282529 0.0093523525 -0.058918994 -0.005651697 0.049337413 0.003623576 0.0061715003
-0.04980239 -0.013344266 0.040338673 0.022892617 0.02864173 -0.071532 -0.037052587 -0.02940404
0.03679528 0.009975742 -0.13049605 -0.046961147 0.028105706 0.015964886 0.01896893 -0.014939359
0.049129117 -0.09320384 -0.004813324 0.042154927 -0.011660942 0.04182349 -0.06810796 0.008392998
0.023584656 0.009603952 -0.010114156 -0.051920634 0.023065656 -0.0060216673 -0.02241888 -0.04809548
-0.0744879 0.010924966 0.015604766 -0.038906526 -0.041333895 -0.015801355 0.020222966 0.0013731596
-0.07327673 -0.014501904 -0.030509703 -0.013388073 0.019798722 -0.07074221 -0.017013665 0.007265247
-0.04047344 0.05354044 -0.05068989 -0.0547275 0.005349972 -0.03347636 -0.0072592488 -0.02817878
-0.024368409 0.024596201 -0.0629605 -0.011210407 0.024061404 -0.027091714 0.0068830247 -0.04197515
-0.05327449 0.025484757 0.019527178 -0.011136329 0.009478214 -0.01888833 0.023833564 -0.020504786
0.022519797 0.006341057 0.0014047226 0.018075796 -0.02415398 0.021080697 0.007905878 -0.005053709
-0.0046525486 -0.016052624 0.012961574 -0.00044327477 -0.0072545977 -0.011794203 -0.0008311086 0.008570711
-0.010863737 0.017171554 -0.11213047 -0.06740808 -0.01590974 -0.112844475 -0.15354468 -0.03972987

bias f4 [32]
00000000: a496 8739 51e2 39ba 7249 353c 1570 25bc
00000010: bcb0 443c 9bf2 f33c 271f 75bc 0914 033d
00000020: 1ea9 59bc eac4 843c 1865 183c 0d4a 07bc
00000030: 5931 83bb 0395 903c 126e 383c c9e6 623d
00000040: f5da ebbc 0634 70bc b1ea 9abc 049c 95bb
00000050: a6ac 78bb 81e4 4ebc 9d6c bc3a 0555 c8bb
00000060: 00a7 0b3c 5cdf 61bc 7e6d 02bd 0640 fc3c
00000070: 13ad c1bb e658 3a3d 3c14 59bc 848c 9eba
0.00025861443 -0.0007090914 0.011064874 -0.010097523 0.012005027 0.02977877 -0.014961041 0.03200153
-0.01328495 0.016207177 0.009301446 -0.008257401 -0.0040036854 0.01764918 0.011256712 0.055395875
-0.02879093 -0.014660841 -0.018910738 -0.0045657177 -0.0037944703 -0.012627722 0.0014375631 -0.0061136507
0.008523703 -0.013786163 -0.0318427 0.030792248 -0.0059105246 0.045494936 -0.013249453 -0.001209632

weight f4 [1, 32, 5, 5]
00000000: 959f 0abd 846e 693b 55f5 cc3c 3b47 43bb
00000010: 99c3 fcbb 0fb0 50bd 977f 193d f068 143d
00000020: d395 253c c66f 03bd 7d9f ffbc 59c4 8abc
00000030: d74d 023d 6072 223d 8428 053d 9f44 55bd
00000040: 8e8f 1cbc 0edf 213d 0680 6c3c 4271 ed3c
00000050: b1d5 71bb 0bf5 9dbc a19c abbc 1822 a03c
00000060: a214 d73a 1a5a 00bd b75d 82bc 7c1d c9bc
00000070: f362 be3c 19f4 84bb 005f 623c 1f01 0abd
00000080: 6134 93bd 3bf7 d0bd 52db c6bc 72b0 993c
00000090: eb02 673d b498 d03d 9de9 493c 23c3 40bc
000000a0: 1996 1d3b ec3c 143b 3b6f f93b 7e9c f5bc
000000b0: e660 063c 02cf 38b9 0fcc 79bc 66da 9f3b
000000c0: 741c 0dbd b40a 133c b54d 1abd df96 6cbc
000000d0: 6be8 95bc 80be 78bb 4c56 f3bc 8063 413c
000000e0: b59f 303a c6a8 033b f1a0 643c ec26 d8bc
000000f0: 151d 2f3d ee45 e43b a743 2c3d 6c02 77bc
00000100: 6535 403d e713 59bc 5c40 643d b32e a73c
00000110: 75ec 923b 3863 9e3c 8519 13bb 0513 44bb
00000120: fcde fabc f8cd 4a3c 50c7 6bbc 9153 153c
00000130: b048 ab3b 7eaa ab3c 1c2b c03c 6d47 0fbc
00000140: 0ec0 2e3c 03bd 883c 627e 3db8 98d4 213c
00000150: 0298 033c 8954 7d3c 5b04 3c3b 4c19 4a3d
00000160: e59f 48bb d401 293d e8fa 3fbd 425f be3c
00000170: 30f9 513d d247 053c 4b9a d03c f838 8abd
00000180: eb38 1bbd 57ab debd 1f38 90bd 6e85 97bd
00000190: a90d 5f3c 2509 9eb9 7b7e fd3c 63af 003d
000001a0: dabc 1cbd d96b 0dbd e1d0 2ebc 4da4 f63c
000001b0: 2ffc be3c 3c59 503c f4bb 503c 12e9 2c3d
000001c0: c3a2 973c 4cb8 64bc b56d a83c 9ef1 d43c
000001d0: f26b e43c 5bd4 2fbc 3827 0fbd 0e31 26bc
000001e0: 9ad5 02bc 64db 03bd cdf4 943c 9b85 803b
000001f0: 6e91 b33b e6dc c03b f2d6 53bd 8927 ab3b
00000200: a8aa 113c 8e10 4a3c ae58 553c c312 aabd
00000210: 86c3 11bd 13e5 bdbb 5c60 cebb 0f11 66bd
00000220: f7dd 5ebc d484 9ebd 412c 0cbd 5ee2 0bbd
00000230: c1b8 dcbc 4b15 e03b 731f b7bc 2c55 c83b
00000240: b529 793b 7ed1 b13c 3136 ff3c 9abe 033c
00000250: 8753 5f39 b488 57bc e90a 113c 07f3 95bb
00000260: 9d95 e1bc a437 28bc 31d0 31bc 8110 f93b
00000270: e121 25bd 0684 43bd 7482 b8bb a264 57bd
00000280: 23ae 77bc be1e 833c be80 5d3b b037 b6bc
00000290: 6259 bc3c 2e9d 4d3c e0fc e33c f8db 973d
000002a0: 1e6a ccbb 608c 913c 4ccd 0dbd f894 bd3c
000002b0: 0d95 683d 416c 6c3c 291f e03b 3118 8bbc
000002c0: 0f95 87bd 6089 cdbc d110 1f3c 992a f1bb
000002d0: a027 65bc c3ed 24bd 37d6 033b 9baa 07bc
000002e0: 90e6 013d ed84 28bc 7009 9e3c 4915 f0bb
000002f0: dbd3 96bb c04f 803d d941 153b c664 063c
00000300: f53c 3fbc 3c57 be3c 97e3 6b3d 730b 8e3a
00000310: 1e1a 813b 158c 72bc b9d1 413c e526 003d
00000320: 982e 87bc 6e8b 82bc a7fd 5fbb 724f b13a
00000330: 2c1d 373c f694 3abc 0e48 85bc 77fe a83c
00000340: 4e9f da3c e188 a33c 0f67 a4bb 94ee 803c
00000350: 1a04 8f3d 7667 133d 13b5 7e3c df91 063c
00000360: cb28 573c 7c90 c83c 4fb2 86bc 26f5 b4bc
00000370: d467 01bd 7055 abba 6d34 07bd c96a 93bd
00000380: a470 61bd dbf0 64bc 8c3f 02bb 0558 6bbc
00000390: 6f08 debc 7c5f df3c 48ee 47bd d54c a33c
000003a0: 2413 70bc 199e c5bb fca0 ff3c 7517 373c
000003b0: 94c7 553d ed19 a43c a16c 60bd 5136 453c
000003c0: 8579 333d d5c6 cd3b 6825 67bb e4bc 66bb
000003d0: 198c 86bd 2825 133d d5c4 4cbd 77d0 383b
000003e0: 9988 2e3d 7281 afbc a5d0 17bc eddd 083c
000003f0: 9da5 193d 0c85 923c 2f31 f13b 439e 573d
-0.033843596 0.003561885 0.025019327 -0.0029797095 -0.0077137467 -0.050949153 0.037475195 0.03623289
0.010106522 -0.032089017 -0.03120398 -0.016939329 0.031812515 0.039659858 0.03250934 -0.052067395
-0.0095557105 0.039519362 0.01443482 0.02898467 -0.0036901052 -0.019281885 -0.02094871 0.019547507
0.0016409347 -0.031335928 -0.015913827 -0.024550192 0.023240542 -0.004057419 0.013816595 -0.033692475
-0.07187725 -0.102034055 -0.024274502 0.018760893 0.056399267 0.10185376 0.012323764 -0.011765274
0.0024045764 0.002261932 0.0076121367 -0.029981848 0.008201813 -0.00017624724 -0.015246405 0.00487833
-0.034450963 0.00897472 -0.037671763 -0.014440267 -0.018299302 -0.0037955344 -0.029704235 0.011803508
0.00067376654 0.002008961 0.013954387 -0.026385747 0.042752344 0.006966344 0.042056706 -0.015076261
0.04692592 -0.013249374 0.05572544 0.02040801 0.0044837543 0.01933442 -0.002244563 -0.0029918563
-0.030623905 0.012378208 -0.0143907815 0.009114162 0.005227171 0.02095532 0.023458056 -0.008745057
0.010665907 0.01669169 -4.5178815e-05 0.009877346 0.008031847 0.015462049 0.002868912 0.04934053
-0.0030612883 0.04126151 -0.046870142 0.023238782 0.051263034 0.008134799 0.025464198 -0.06749147
-0.037896078 -0.10872524 -0.07041954 -0.073984966 0.013614097 -0.00030142922 0.0309441 0.03141726
-0.03826604 -0.03452668 -0.010669918 0.030107642 0.02331361 0.012716588 0.012740124 0.04221446
0.018510228 -0.013959955 0.020560125 0.025994118 0.027883504 -0.010731782 -0.03494951 -0.0101435315
-0.007985497 -0.03219165 0.018183136 0.003922177 0.005479983 0.005885708 -0.05171866 0.005223219
0.008890785 0.0123330485 0.013021631 -0.0830436 -0.035586856 -0.00579513 -0.006298108 -0.056168612
-0.013602725 -0.07740179 -0.03422189 -0.034151427 -0.026943566 0.006838476 -0.022353863 0.006113669
0.0038019244 0.021706339 0.03115377 0.008041048 0.00021298054 -0.013155151 0.008852699 -0.0045760903
-0.027537161 -0.010267172 -0.010852859 0.0076008444 -0.040315513 -0.04773333 -0.0056307856 -0.052586205
-0.015117201 0.01600587 0.003379866 -0.02224335 0.02299184 0.012549682 0.027830541 0.074150026
-0.006238236 0.017767131 -0.034619614 0.023142323 0.05678277 0.014430107 0.006839652 -0.016979309
-0.066202275 -0.02508992 0.009708599 -0.0073598144 -0.013986498 -0.04026581 0.0020116696 -0.008280422
0.031714022 -0.010285598 0.01929161 -0.007326756 -0.004602892 0.06265211 0.0022774844 0.008202737
-0.011672248 0.023234956 0.057590093 0.0010837152 0.003939881 -0.014803906 0.011829787 0.031287093
-0.01650171 -0.015935626 -0.0034178288 0.0013527705 0.011176389 -0.011388054 -0.01626971 0.02062915
0.02668729 0.01996273 -0.0050171684 0.015738763 0.06983204 0.03598734 0.015546101 0.008213489
0.013132284 0.024482958 -0.016442446 -0.022089552 -0.03159316 -0.0013071727 -0.03300898 -0.07198102
-0.055039063 -0.01397344 -0.0019874303 -0.014364247 -0.02710363 0.02726721 -0.048811227 0.019934097
-0.014653001 -0.0060308096 0.031204693 0.011175026 0.052192286 0.020031894 -0.054791097 0.012036876
0.043817062 0.006279806 -0.0035270099 -0.0035207802 -0.0656969 0.035924107 -0.0499924 0.0028200427
0.04261074 -0.021424029 -0.009266053 0.0083536925 0.037511457 0.017885707 0.0073605995 0.052641165
