model_Discriminator.pt (torch, 170016 bytes, 9 tensors)

weight f4 [64, 1, 3, 3]
000000 5f 74 78 be bf 47 22 be 5c 43 14 3e 8c 8e 10 be
       -0.24263142 -0.15847681 0.1447882 -0.14116877
000010 3c c9 47 3e 68 37 8d 3e 81 5b 6b be 90 4a af bd
       0.19510359 0.27581334 -0.22984125 -0.085591435
000020 d1 59 ed 3d 63 59 9c 3d 35 a7 8f be 18 8a 80 3e
       0.11589397 0.07634237 -0.28057256 0.25105357
000030 8b fe f3 3d be 7c bd 3e 90 ad 90 3e aa 8d 85 3e
       0.119137846 0.37009233 0.28257418 0.26084644
000040 74 57 7c 3e 2d d7 23 3d bc bc 21 3e 7f ca 7e be
       0.24642736 0.04000013 0.15794653 -0.24881934
000050 ce 56 a5 be 4c 68 33 3e 52 96 e5 3d 26 0b 0c be
       -0.3229279 0.17520255 0.11210312 -0.13676128
000060 f6 b1 f6 bc 23 f9 0f bc b7 fa 49 be 55 3b 94 bd
       -0.030114155 -0.008787426 -0.19724546 -0.07237879
000070 5e ec 41 be ac 34 a8 3d 83 68 a6 be 3b f9 85 be
       -0.18937823 0.08213171 -0.3250161 -0.2616671
000080 ad 62 01 3e 7b 3f 4b be f0 42 6b be 5f 43 05 3e
       0.12635298 -0.19848435 -0.22974753 0.13013981
000090 4a 9c b5 bd a2 81 59 3e 0d b7 08 3e 27 78 2f 3e
       -0.088677004 0.21240857 0.13351078 0.17135678
0000a0 2d f6 98 3e a7 d4 38 3e c8 90 6d be 4e 61 1e be
       0.29875317 0.1804987 -0.23199761 -0.15466806
0000b0 c1 3c 84 3e 14 fc f4 3d 0b d9 86 bd f9 93 12 3e
       0.25827602 0.119621426 -0.065843664 0.1431426
0000c0 4e f5 ee 3d b2 ef 63 be 87 1c 33 3e 0b d7 4a 3e
       0.11667882 -0.22259405 0.17491351 0.19808595
0000d0 bc db 2a 3d 49 3d 97 3d de 74 99 be e2 04 51 be
       0.04171346 0.07384736 -0.29971975 -0.20412019
0000e0 57 fb 24 be ee f7 29 3e 40 d1 90 3e bd 7f 6c 3e
       -0.16111504 0.16598484 0.28284645 0.23095603
0000f0 ea 69 aa bd f0 80 88 be b4 6d 25 be cd 56 bb 3d
       -0.08320983 -0.26660872 -0.1615513 0.09147415
000100 7c 6b 96 be a8 9c ea 3d cf 9e 6a 3e a9 53 9e 3b
       -0.2937888 0.11455661 0.22912143 0.0048317504
000110 0a 88 55 3e 86 62 5b bb d9 56 9e 3e 24 14 9a be
       0.20852676 -0.0033475473 0.30925635 -0.3009349
000120 4e e8 8e 3e 06 39 66 3d aa 8f 3c 3e cc 8c f3 bd
       0.2791161 0.056206726 0.18414178 -0.11892089
000130 36 cd 45 be e8 1e 82 3e 24 02 e4 3d d3 43 62 3d
       -0.19316563 0.25414205 0.11133221 0.055240463
000140 89 57 19 bd c8 e6 76 be a9 86 39 3e f0 88 17 3e
       -0.037436996 -0.24111474 0.18117775 0.14798331
000150 0e b6 aa 3e 9c 97 42 bd 4d f7 9f 3e ba 58 a8 3d
       0.33342022 -0.047507867 0.31243363 0.08220048
000160 68 22 32 3e 56 7e b0 3d 1c 4e 01 3e 67 ad 2f bd
       0.17395937 0.08617847 0.12627453 -0.04288998
000170 8a 2b 55 3e 09 ee 7e 3e 62 6a de bc 54 dd 02 3e
       0.2081739 0.2489549 -0.027150337 0.12779742
000180 5f 67 a9 3e 8c d6 88 be 09 a0 ef bd 50 a7 72 be
       0.33086678 -0.26726186 -0.11700446 -0.23696637
000190 51 53 a5 3e c3 84 f0 bd 49 78 9a be 10 26 59 3e
       0.32290128 -0.11744072 -0.30169895 0.21205926
0001a0 02 98 66 be f7 9b 9a be da fa 60 3e f5 bf 4e bd
       -0.22518924 -0.30197117 0.21970692 -0.050476033
0001b0 e3 be 36 3e 19 0f 66 3e 8d e8 34 bd c0 e9 40 3e
       0.17846255 0.22466697 -0.04416709 0.18839169
0001c0 0c 38 3d 3e 1f c6 34 3c 8c d8 12 3e 2f e1 41 be
       0.18478411 0.011033564 0.14340419 -0.18933557
0001d0 77 2f 03 be 71 83 8f 3d 1f 8a 51 3d 56 82 74 3d
       -0.12811075 0.07007492 0.051157113 0.05969461
0001e0 70 8d fe 3c f5 cb ed bd 89 60 6a bc 0a ba 2d bd
       0.031073302 -0.11611167 -0.014305242 -0.04241375
0001f0 db 32 e2 bd 75 62 74 bd 31 c7 a0 3d 45 d1 5b 3e
       -0.11044856 -0.05966421 0.07850493 0.21466549
000200 0a 3e 9c be 40 51 87 3e ee d1 a2 bd 0e c7 92 be
       -0.30516082 0.26429176 -0.07950197 -0.28667492
000210 3c a8 09 3e 66 f4 38 bc 5e e0 8d 3c 99 c9 7b be
       0.13443083 -0.011288738 0.0173189 -0.24588622
000220 6a 46 f4 bd 6b 15 0c 3e 94 94 a4 be 8c 17 b5 bd
       -0.11927493 0.13680045 -0.32144606 -0.08842382
000230 91 ec 3d 3b f2 ec 5b be a8 6e 80 3e 42 ae 50 3e
       0.0028980116 -0.21477106 0.25084424 0.20378974
000240 a6 e3 65 be fe d7 35 3e 45 f2 fb 3d d4 ea e5 bd
       -0.22450122 0.17758176 0.123020686 -0.112264305
000250 cc f3 a8 3e ae 38 8d bd e6 b3 33 bd 30 d7 71 be
       0.32998502 -0.068955764 -0.043872736 -0.23617244
000260 e9 61 ff bd b9 28 a8 3e e0 e6 8b be 15 1f 3e 3e
       -0.12469847 0.3284357 -0.2732458 0.18566544
000270 f5 01 a5 be a6 da 81 3d 7d 5a 83 be 25 36 ef 3d
       -0.32228056 0.06340532 -0.25654975 0.11680249
000280 4a 5c 1c be b8 18 16 3e 9e fb 69 be d0 c9 33 3e
       -0.1526958 0.14657867 -0.2284989 0.17557454
000290 b4 f1 3a 3e 7e c4 ee bd 87 f6 a8 bd 90 65 c4 bd
       0.18256265 -0.11658572 -0.08250146 -0.09589684
0002a0 d3 37 a8 3c ae 7f 84 be 30 7c 81 be 37 21 a5 3e
       0.020534432 -0.25878662 -0.2529006 0.32251903
0002b0 8c db 95 be 3e 63 42 3e c6 1a 9e be 48 7e 3b be
       -0.29269063 0.1898317 -0.30879802 -0.18309891
0002c0 54 da 8e be 6c 93 b0 3d db 2d fa bd 57 74 85 be
       -0.27900946 0.086218685 -0.122157775 -0.26065323
0002d0 2f 1f 97 be 69 55 9e 3d 61 63 82 bd 0a ed 2a be
       -0.2951598 0.077311344 -0.06366611 -0.16691986
0002e0 59 75 8c 3e 84 92 5f bd cb fb 54 bc a8 e0 e8 ba
       0.2743328 -0.054583088 -0.012999485 -0.0017767148
0002f0 b7 f5 3c be 43 c1 35 3c ac 70 60 3d f2 10 b3 3e
       -0.18453108 0.01109344 0.054794952 0.34973866
000300 2c 3b 85 3e d3 5e a2 3e 9b f4 98 be 66 52 74 3e
       0.26021707 0.3171297 -0.2987412 0.23859558
000310 56 76 a7 3e db de 9e bd c2 ab aa be 94 a6 35 bd
       0.3270747 -0.0775735 -0.33334166 -0.044348314
000320 bb dd 3d 3d 2d 21 a2 be 70 71 48 3e 19 74 34 be
       0.046354037 -0.31665936 0.19574523 -0.17622413
000330 9a 03 6f bd 91 f1 ee 3d 08 e6 9a bd 6d bf 61 bb
       -0.058353044 0.11667169 -0.07563406 -0.0034446374
000340 d7 a3 20 3d f5 59 5e 3d 4f 97 1f 3e f4 71 8e bb
       0.03921875 0.05428501 0.15585063 -0.0043470804
000350 4a 7f d6 bd 66 ad 5b 3e 28 3f 87 3e 44 6e 23 be
       -0.10473497 0.21452865 0.26415372 -0.15960032
000360 bb e1 9f 3e 3b 86 92 bd 4f 64 d9 bb f5 be 98 3e
       0.31226906 -0.07154509 -0.006634272 0.2983319
000370 76 9e 33 be 50 f7 8d 3d 0f 91 88 be 98 83 05 3e
       -0.17540917 0.06931937 -0.2667317 0.1303848
000380 19 3e 2e be 47 08 94 be 9f e7 83 3e 56 a5 94 be
       -0.17015876 -0.28912565 0.2576265 -0.2903239
000390 c6 0a 56 be ec 35 0f 3d 64 c2 ef bd de 8a 53 3e
       -0.20902547 0.034963533 -0.11706999 0.20658442
0003a0 da dd 85 3d 21 94 72 be e2 a4 5a be d9 a1 6d 3e
       0.065364555 -0.23689319 -0.2135196 0.23206271
0003b0 16 be 90 3e 02 38 83 bc fd 21 9e be 51 fe ae bc
       0.28270024 -0.016017918 -0.30885306 -0.021361502
0003c0 1b 7c 09 3e 00 f7 8b be 3c f2 b2 3d 17 66 13 be
       0.13426249 -0.27336884 0.08737609 -0.14394413
0003d0 38 aa 99 3e a3 1b 1b 3e a0 0a 0e be ad 43 54 be
       0.3001268 0.15147261 -0.1387124 -0.20728941
0003e0 2a df 55 3c 5d ed 39 3e d9 38 a8 3d fb 8c 7f be
       0.013053695 0.18156953 0.08213968 -0.24956124
0003f0 8f 60 a2 3e c4 2d a4 3d 98 ae 1a be a7 5f 6c 3e
       0.31714293 0.080165416 -0.15105665 0.23083363

bias f4 [64]
000000 c1 8f 0d bd 53 6f 93 3e 16 3b a1 3e 62 6c 73 3e
       -0.034560923 0.2879587 0.31490391 0.23771814
000010 56 f6 11 be 67 29 74 be be 5e ea 3b 81 7f 57 be
       -0.14254126 -0.23843919 0.0071524074 -0.21044733
000020 49 0b 58 3d f8 3c 8a 3c 1b ff 0b 3e db 41 a8 be
       0.052745137 0.016874775 0.13671534 -0.32862744
000030 a0 6d da bd 61 6d 68 3c 6b 8b 09 3e 9a b2 67 be
       -0.106654406 0.014186234 0.1343209 -0.22626725
000040 33 cc d3 3d d2 d1 00 3e dd 45 87 3e 08 97 a6 be
       0.10341682 0.1258004 0.2642049 -0.32537103
000050 f3 d9 a7 be aa ec 54 be fe 59 9b be 3d b0 9f 3e
       -0.3278347 -0.20793405 -0.30342096 0.31189147
000060 64 27 c5 bd 41 1b 48 be bb 82 54 3e 2c 1a a1 3e
       -0.09626654 -0.19541647 0.20752995 0.3146528
000070 e5 2c a1 be e3 d2 1f 3e 17 db 93 3d df a0 b2 3d
       -0.31479564 0.1560779 0.072195224 0.0872209
000080 a7 e4 99 bd e9 35 a2 3e b3 7f 85 3e 87 fd 83 3e
       -0.07514315 0.31681755 0.2607399 0.25779364
000090 18 33 04 be d3 ed a4 3e 4c be ac 3d 79 d4 f6 bc
       -0.12910116 0.32212695 0.08434734 -0.030130612
0000a0 c7 5a 89 be 9b 01 75 bd 5c 77 2e 3e 28 20 93 3e
       -0.2682707 -0.059815984 0.1703772 0.2873547
0000b0 1b b3 d2 bc d1 8e 79 3d 2e c1 8a 3e 3d 5d cc bc
       -0.02572017 0.060927216 0.2710051 -0.024946803
0000c0 97 eb a7 bd 4a 04 67 be 04 ba 82 3e bc d7 87 3e
       -0.08199232 -0.2256023 0.25532544 0.2653178
0000d0 dd fd fb bd 64 3e 41 3e 93 39 49 be 4f bd 05 be
       -0.1230428 0.18871456 -0.19650869 -0.13060497
0000e0 d5 56 5c 3e b2 d1 bd 3d 38 f2 6f be 14 70 96 be
       0.21517499 0.09268512 -0.23432243 -0.29382384
0000f0 4d bf 51 be 2c 8e 89 be 2c d8 a4 3d 83 76 6d be
       -0.20483132 -0.2686628 0.08049044 -0.2318974

weight f4 [64, 64, 3, 3]
000000 fb 9c 30 bd 49 14 cc bc dd 00 0c bc c3 b8 ab bc
       -0.04311846 -0.024912016 -0.008545128 -0.020962125
000010 02 68 a8 bb 27 3d 97 3c 22 d2 04 bd eb 08 8d 3c
       -0.005139352 0.018461777 -0.03242696 0.017216166
000020 a1 2d 0f 3c 50 66 65 bb 68 e2 87 3c 15 42 0e 3d
       0.008738906 -0.003500361 0.016587451 0.03473099
000030 af bb 4d 3c 92 3c 43 bc 24 e1 4b bc 67 fe 9a 3c
       0.012556954 -0.011916297 -0.012443814 0.018920137
000040 2e af a7 ba 78 c0 6c 3c ef 38 f5 39 44 af 9e 3c
       -0.0012793296 0.014450185 0.0004677246 0.019370683
000050 2a 87 22 bd 9d 89 ab 3b c6 d5 d8 bc 04 ff 03 bd
       -0.039679684 0.0052349106 -0.026469123 -0.032225624
000060 0a 74 30 3c 93 69 e5 3b a6 7f 52 3c d2 d7 bb bc
       0.010769853 0.007001111 0.012847817 -0.02293006
000070 8f 87 61 3c 5e e3 3e 3d c5 ec fe bc 5c 79 ea 3b
       0.01376523 0.046603553 -0.03111876 0.0071555804
000080 82 90 73 bc 4d fa b8 3c 23 1f 39 3c 04 0d 9c ba
       -0.014865996 0.02258029 0.0112989275 -0.0011905734
000090 c9 a7 01 3d a8 a1 96 bc 45 ef 85 bb ca 39 e0 bc
       0.031654153 -0.01838763 -0.004087361 -0.027371306
0000a0 e8 d4 8b bc c4 a9 02 3d 23 5f b7 bc e8 94 0a 3d
       -0.017069295 0.031900182 -0.022384232 0.033833414
0000b0 f8 cd b1 3b 1c 04 69 3c 2a 95 e4 3b 20 d9 0b bd
       0.0054261647 0.014222171 0.0069757896 -0.034142613
0000c0 30 7a b4 bc 4f 2d 89 3c 29 0b 82 bb 02 fe 62 3c
       -0.02203092 0.016745238 -0.0039686156 0.0138545055
0000d0 00 81 31 bc c9 86 b5 bc c8 61 0e bd fa 6f 7f 3c
       -0.010833979 -0.022158997 -0.03476122 0.015590662
0000e0 72 53 ab 3b 43 a3 14 3b 7c f6 df bc 1d c1 1f 3d
       0.0052284533 0.002268032 -0.027339213 0.039002527
0000f0 d9 83 fa bc 6d 4d 0e 3d 56 0b 60 3c 5c d6 e9 3c
       -0.030580448 0.034741808 0.013674578 0.028544597
000100 50 02 91 3a 8e c2 92 bc 03 75 ef 3c e6 37 63 3c
       0.0011063311 -0.017915037 0.0292306 0.013868308
000110 18 b8 e4 bc 1e fb cb 3b 72 f7 0f bd 95 81 84 3c
       -0.027919814 0.006225004 -0.03514809 0.01617507
000120 60 45 11 bd 2e ad d1 bc 8b 91 17 3c e7 1d d3 bb
       -0.03546655 -0.025595274 0.009251009 -0.0064427736
000130 cd 77 72 bc fe e8 b1 bc f5 be d6 bb f4 6e 00 3d
       -0.014799071 -0.021717545 -0.0065535256 0.031355813
000140 74 a0 e4 bc 0b 3f 1d 3d d0 06 15 3b d6 34 25 bd
       -0.027908541 0.0383902 0.0022739656 -0.04033359
000150 c3 91 22 3d 10 64 7a 3c d5 9b 5b bb 93 3b b0 bc
       0.03968979 0.015282646 -0.0033509631 -0.021512782
000160 d8 ce d4 bc 99 62 42 3c 9d 02 1d 3d d7 62 9a 3c
       -0.025977537 0.011864328 0.03833257 0.018845959
000170 f3 6c c1 bc a0 e3 c6 3c b6 b7 f9 bc cc 9c 6e 3c
       -0.023611521 0.024278462 -0.030483108 0.0145637505
000180 fa 22 18 3c 84 fc 13 bd 5d b0 13 bd ab ef 8f bc
       0.009285683 -0.03612949 -0.036056865 -0.017570337
000190 0f f4 84 bc 6b 1a 2e bd 5b 57 ad 3c 43 dc 25 bb
       -0.016229657 -0.042505663 0.021159818 -0.0025308288
0001a0 14 68 31 3a fe f6 ef 3a ec be 54 3c 87 0b 90 bb
       0.0006767523 0.0018307862 0.012984972 -0.0043959054
0001b0 6d 4f 7c 3c cb 9e 26 bd 55 28 1f bd 36 1d ea bc
       0.015399796 -0.04067878 -0.038856823 -0.028578382
0001c0 c6 49 f8 bb 27 dd 4e bc 19 5e 17 3d 1f 13 2f bd
       -0.007577154 -0.012625969 0.036954973 -0.042742845
0001d0 42 81 91 bc f5 3f 82 3b 93 00 e7 bc 6a 87 78 bb
       -0.01776183 0.0039749094 -0.028198516 -0.003792251
0001e0 41 1d 3b 3c 0f aa 29 bd d4 fb 5e 3c 5e 17 32 3c
       0.011420549 -0.041421946 0.013609845 0.010869829
0001f0 2b a7 19 bd f1 64 7b 3c 93 c4 c5 bc bb c9 8e bc
       -0.03751294 0.0153438905 -0.024141585 -0.017430177
000200 8e e0 aa 3c e7 32 98 3c 6a 7a f6 bc e5 4e 6f bb
       0.02085903 0.01857896 -0.030087668 -0.003651553
000210 aa 91 81 3c c0 b7 f7 3c f3 71 39 bc a6 d6 c4 bb
       0.015816528 0.030238986 -0.0113186715 -0.0060070334
000220 2e 2e 30 3c 17 84 5a bc 88 25 62 3a 2b 18 db 3c
       0.010753198 -0.013337157 0.00086268084 0.026744923
000230 e1 e6 c2 3c da 07 dd 3c 79 7d bf 3a 6a cb 20 3d
       0.023791732 0.026981283 0.0014609537 0.03925649
000240 b1 c9 d4 3c a1 dc 10 3d f1 6e b6 3c 65 6b 22 bd
       0.02597508 0.035366658 0.022269698 -0.0396532
000250 84 c9 da 3c 6a 9d a1 3c b1 4f 05 3d b7 fa 0a 3d
       0.026707418 0.019728381 0.032546703 0.033930507
000260 ae 09 cf 3c b9 ff a3 3c f4 f9 8e bc af 6c 00 3c
       0.02527317 0.020019399 -0.017453171 0.007838412
000270 82 d7 a7 3c 2e 83 0c 3d d4 c4 5b 3c 5a a9 10 3d
       0.020488504 0.03430479 0.013413627 0.035317756
000280 b9 b5 13 3d be 8e ae bc d0 18 0b 3d 6c 0c 18 bd
       0.036061976 -0.0213083 0.03395921 -0.03712122
000290 c1 5c 3e 39 20 c5 d8 3c b1 f7 ac bc b9 14 18 3c
       0.00018154366 0.026461184 -0.021114202 0.009282284
0002a0 48 bd 26 bd a6 76 98 bc 57 81 92 bc 7d 21 1f bd
       -0.040707856 -0.018611263 -0.01788394 -0.038850296
0002b0 33 bc 85 3b cd 13 6b 3c 45 c0 f0 bc c3 51 dc bc
       0.004081273 0.014347983 -0.029388556 -0.026894456
0002c0 51 44 de 3c 8d ae 52 bc 1d ae da bc f5 9a 21 bd
       0.027132185 -0.012858999 -0.026694352 -0.03945442
0002d0 ae 63 d6 bc 9a 49 26 bd 53 86 2f bd 05 d5 06 3d
       -0.026170578 -0.040597536 -0.04285271 0.032917995
0002e0 0c 67 c0 3c 0a 9e 48 3c 8f 89 1a 3c d2 12 c4 3a
       0.023486637 0.012244711 0.009432211 0.0014959222
0002f0 33 e5 33 3d 03 ac 29 3d 39 9d 1c 3d 56 6d 08 3d
       0.043919753 0.04142381 0.038235877 0.033307396
000300 ec 97 05 3d 47 0f 2e 3d 74 9d 10 3d d2 1d 16 bc
       0.032615587 0.04249504 0.03530641 -0.009162383
000310 fe 31 c9 3c 29 37 9e 3b 23 38 31 bc b2 7a 5b 3b
       0.024559971 0.004828353 -0.010816607 0.003348988
000320 a2 5a b5 3c eb ae 06 bd 3c 6b 9d bc 69 64 ba 3c
       0.022137944 -0.03288166 -0.019216172 0.022752957
000330 6d 71 d9 3c 9b c4 77 b8 39 ee 2c bd dd 5e 06 3b
       0.026543343 -5.9072492e-05 -0.042219374 0.002050332
000340 7e 6e e1 3c d6 a5 dc bc e2 21 2d bc 14 99 3f bc
       0.027518507 -0.026934545 -0.01056716 -0.0116942115
000350 40 28 02 bd 02 bf 0b bc 98 3f 06 3d 73 ae a3 3c
       -0.031776667 -0.0085294265 0.03277549 0.019980645
000360 7b 35 08 bd 01 4d fa 3c 6d 8b a9 3c 66 9c 36 3c
       -0.033254128 0.030554296 0.020696366 0.011145687
000370 3d 59 d2 3c cc 60 31 3d 52 65 27 bd 5b ee 45 bd
       0.025677318 0.043305203 -0.04086811 -0.048323017
000380 34 a0 93 3b 2a 92 10 bd 3b 84 18 3c cf 69 2b bd
       0.0045051817 -0.035295643 0.00930887 -0.041848954
000390 43 58 d4 bb 8a bd 1f 3d fe e5 2b bd d8 b9 07 bd
       -0.006480248 0.038999118 -0.041967385 -0.03313622
0003a0 0e 62 e9 bc 8f e5 82 3c ac 1a 7a ba 19 ea c4 3c
       -0.028489139 0.015978603 -0.00095407176 0.024037408
0003b0 a8 11 99 bc cc bb ce bc 20 73 84 3c 8d af b1 bb
       -0.018685177 -0.025236033 0.016168177 -0.0054225386
0003c0 6d 01 7c 3c 98 3f cc bc 07 fc b3 bc 52 f3 ca bc
       0.015381199 -0.024932668 -0.021970762 -0.024774227
0003d0 df 60 03 3d d9 b7 fa 3b 07 f6 50 bd 47 ab 6c bc
       0.032074805 0.007651311 -0.05101588 -0.014445133
0003e0 08 5a 35 3c 32 22 1d bc 55 a8 5e bc 5e 24 ae 3c
       0.011068828 -0.009590672 -0.013589938 0.021257576
0003f0 27 bc 2e bd 94 75 5b bb cd d0 c0 3c 7e 38 bb bc
       -0.042659905 -0.003348683 0.023537064 -0.022854086

bias f4 [64]
000000 09 a8 a5 3c 6e 28 c5 3c f1 dd 05 bd 64 b6 b0 bc
       0.020221727 0.02406713 -0.032682363 -0.021571346
000010 68 26 b3 3c bd 89 49 bc 0b d0 d9 3b b2 cc c9 3c
       0.0218689 -0.012300906 0.006647115 0.02463374
000020 84 3a 16 bc 39 a9 81 bc 90 b7 55 3c c2 6b c9 3c
       -0.009169225 -0.015827762 0.013044253 0.024587516
000030 d6 26 50 b7 6e 8b 86 bb fe 48 53 3b 5b bb be bc
       -1.2406808e-05 -0.004105977 0.0032239552 -0.023282697
000040 af 2a f6 bc d5 17 e4 3b 6e 2f be bc 65 af 07 3d
       -0.03004965 0.006960849 -0.023215976 0.033126254
000050 9a 8c ae 3c 5b 84 c2 3b 1c 47 e4 bb 21 47 dc bc
       0.021307278 0.005936188 -0.0069664847 -0.026889386
000060 de 2f 15 3d 56 b6 fb bc 0f 2f f7 3c 5b 09 fc bc
       0.036422603 -0.030726593 0.030173806 -0.03076618
000070 18 0f 69 3b a9 ec 94 3b 4d 8f d1 3c c3 de e6 bc
       0.0035561975 0.0045448137 0.025581026 -0.028182393
000080 56 af 02 3d b4 17 4a bc 61 a4 f2 bc 5c 31 92 bc
       0.031905495 -0.012334753 -0.029619398 -0.017845802
000090 61 d7 c0 bc 59 f7 13 bd 5d 35 c9 3c 71 a5 89 3b
       -0.0235402 -0.03612456 0.024561578 0.0042006304
0000a0 39 50 63 bc fa e2 1b bc 79 7b 81 3c 28 d0 85 3c
       -0.013874107 -0.009514565 0.015805947 0.016334608
0000b0 52 9c f2 3b 68 77 07 3d e9 b5 e8 3a b9 81 1f bd
       0.0074038887 0.03307286 0.0017754409 -0.038942073
0000c0 cc a3 c5 bc 61 08 10 3b b2 7a f5 3c 6d 37 57 bc
       -0.024125956 0.002197765 0.029965732 -0.013135773
0000d0 9d 3f 08 bd b0 c2 21 bd 86 8d f3 3c c4 a9 08 3c
       -0.03326379 -0.03949231 0.02973057 0.0083412565
0000e0 1c cd a8 bc a6 73 92 3c 4f c0 11 bd c0 85 2d 3c
       -0.020605616 0.017877411 -0.03558379 0.0105909705
0000f0 16 84 f0 bc 3c 88 f1 bc 07 7f 5b ba 29 0d 93 3c
       -0.029359858 -0.029483907 -0.00083731156 0.017950611

weight f4 [64]
000000 e7 b8 81 3f 47 49 80 3f 64 56 80 3f 1c ec 7d 3f
       1.0134553 1.0022362 1.0026364 0.991884
000010 78 7f 7d 3f 87 e7 7e 3f 64 c8 7f 3f 9e 21 80 3f
       0.99022627 0.9957203 0.99915147 1.0010259
000020 89 da 7f 3f 6c af 7e 3f 7e 45 7f 3f 05 7d 7f 3f
       0.99942833 0.9948642 0.9971541 0.9980014
000030 00 5e 7e 3f df 15 80 3f 79 e9 7f 3f 93 37 7f 3f
       0.9936218 1.0006675 0.99965626 0.99694175
000040 48 13 80 3f e7 6e 7f 3f a7 0b 81 3f 6e af 80 3f
       1.0005884 0.997786 1.0081681 1.0053537
000050 7b 1d 80 3f 18 1d 80 3f 6d f7 7e 3f b5 98 7e 3f
       1.0008997 1.0008879 0.9959629 0.9945176
000060 8c 3f 80 3f 5f 08 80 3f 94 49 7f 3f c7 58 7f 3f
       1.0019393 1.0002555 0.99721646 0.9974484
000070 dd d1 7f 3f 7e 12 80 3f 05 84 80 3f ee a9 7f 3f
       0.999296 1.0005643 1.0040289 0.9986867
000080 2f 6a 81 3f 83 c0 7f 3f 0c 0f 81 3f a8 fd 7e 3f
       1.011053 0.99903125 1.0082717 0.996058
000090 77 2a 7f 3f 07 57 80 3f d7 5d 7d 3f ea f2 7d 3f
       0.9967417 1.0026559 0.98971313 0.9919878
0000a0 50 7b 7e 3f b4 0d 7e 3f 94 bf 80 3f 6a 09 7f 3f
       0.9940691 0.9923966 1.0058465 0.9962374
0000b0 86 0d 7f 3f b5 8c 7e 3f 0b dd 80 3f 53 28 80 3f
       0.9963001 0.9943345 1.0067457 1.0012306
0000c0 61 8c 7f 3f 5d e5 7e 3f f1 cc 7f 3f f8 87 7e 3f
       0.99823576 0.9956873 0.9992209 0.9942622
0000d0 e0 59 7e 3f 29 f8 81 3f 9a 56 7d 3f 28 11 7f 3f
       0.9935589 1.0153857 0.9896027 0.99635553
0000e0 0d 9c 7f 3f 73 a0 7f 3f 75 57 7f 3f 92 7e 7f 3f
       0.9984749 0.998542 0.99742824 0.99802506
0000f0 36 c9 80 3f 00 e3 7e 3f 62 8c 7e 3f 4b e5 7e 3f
       1.0061405 0.99565125 0.9943296 0.99568623

bias f4 [64]
000000 86 51 a7 bc a9 28 11 3d da ad 26 3b be 38 4d 3b
       -0.020424616 0.035439167 0.0025433213 0.0031314339
000010 bc 1d 88 3c d0 2d ca bc d8 59 e7 bb ba 44 4d bc
       0.016615741 -0.024680048 -0.0070602708 -0.012528593
000020 f5 1f b3 bc 51 2e b7 3c 31 23 d9 bb 3e bb 33 bc
       -0.021865824 0.022360953 -0.0066265096 -0.010969935
000030 8e 33 af bc 0b 03 cb bc b9 5f 8a bc e1 9c 5b bc
       -0.021386888 -0.024781724 -0.016891347 -0.013404102
000040 e7 f6 77 bc 09 d4 02 bb 99 1f 89 3c cc 4a 8e bb
       -0.01513455 -0.0019962809 0.0167387 -0.0043424126
000050 4f a3 94 bc 1a 59 02 3d 5b 68 6e bc cf 14 cb bc
       -0.018144278 0.031823255 -0.0145512475 -0.024790196
000060 5c 5d 59 bc c2 1c f5 bb 3e 7d 99 bc 1b c7 cb bc
       -0.0132668875 -0.007480235 -0.018736478 -0.024875214
000070 10 83 4c 3a 5d 83 eb ba 7c 75 ce bc 03 df 85 bc
       0.0007801512 -0.0017968226 -0.025202505 -0.016341692
000080 23 17 48 bb 9c bd ac 39 52 ab 98 bc b2 b6 95 bc
       -0.0030531369 0.00032947666 -0.01863638 -0.018275592
000090 9a 16 e1 bc b0 51 1f 3c 38 af 72 bc 63 cf 90 bc
       -0.027476598 0.009724066 -0.014812283 -0.017677015
0000a0 1c c3 a5 bb 5a 0f cf bc b0 26 cd bb ad 8f 90 bc
       -0.0050586592 -0.025275875 -0.0062607154 -0.017646635
0000b0 c9 aa 01 3c 63 89 bc 3b cc 8d 73 bc a5 a3 a5 3b
       0.0079142535 0.0057536825 -0.01486535 0.0050549083
0000c0 ef d7 f9 bc 6e 9d 0f 3b 9b 1b 96 bc 59 67 27 bb
       -0.030498473 0.0021913904 -0.01832371 -0.0025543778
0000d0 42 d4 87 bc f8 a6 6a 3c b4 02 ce bc e8 31 20 3c
       -0.016580705 0.014322035 -0.025147773 0.009777524
0000e0 e5 7b 76 bc c5 54 80 bc 54 64 ce bc 59 9e 5f ba
       -0.015044187 -0.015665421 -0.025194325 -0.00085303705
0000f0 0f dd ec 3c 49 a1 97 bc a0 ec c9 bb f0 86 73 38
       0.028914003 -0.018509524 -0.006162241 5.8061385e-05

running_mean f4 [64]
000000 31 77 7e 3d a8 42 86 3e 12 c1 3a 3e 55 31 21 bd
       0.06212539 0.2622273 0.18237713 -0.039353687
000010 b3 9f 81 3d 3a bd 27 be 6a ec b8 3d b6 72 ab bd
       0.06329288 -0.16380778 0.090294674 -0.08371489
000020 ac 9a 9a bd d2 e5 87 bc 35 2b 83 3d 70 a7 84 bd
       -0.075490326 -0.016589079 0.064047255 -0.06477249
000030 ad a0 f3 3c 2e 02 25 bd 14 13 14 3d 64 06 2d be
       0.029739702 -0.04028528 0.036151007 -0.16896969
000040 99 e8 0a 3e 92 80 9c 3d 72 1d 67 3d 9d d2 4b be
       0.13565291 0.0764171 0.056424566 -0.19904561
000050 89 5b a9 bd 50 f5 da bb cc 7c 43 bd 2d 52 bc 3d
       -0.08269412 -0.0066820756 -0.047726437 0.09195361
000060 9f 19 c0 bd e6 ff c1 bd dd 18 a6 3c 77 71 b1 3c
       -0.09379887 -0.09472637 0.020275528 0.02166055
000070 97 83 25 be 4a 0c 1d 3c 2c da e4 3d 65 a1 8c bd
       -0.16163479 0.0095854495 0.111744255 -0.06866721
000080 67 62 9e 3d 10 1c a9 3d e1 1a b7 3d 76 24 56 3e
       0.077336125 0.082573056 0.089406736 0.20912346
000090 8f 0c 35 be 29 07 71 3e e2 d9 f1 3d 80 b7 c6 bd
       -0.17680572 0.23537888 0.11809136 -0.097029686
0000a0 24 94 b3 bd 53 26 80 3b 6d 11 63 3e 93 32 43 3e
       -0.0876849 0.0039108186 0.22174616 0.19062261
0000b0 ab 34 7f 3d 82 31 e2 3d 67 48 5e 3e 01 06 3d bd
       0.062306087 0.11044599 0.21707307 -0.046148304
0000c0 bd 5b 33 be 00 7d af bd 1c f8 dd 3d 3a 18 86 3d
       -0.17515464 -0.08568764 0.10838339 0.065475896
0000d0 77 42 e5 bd 2f 9d 22 3e 9a 1a 38 bd 76 e1 18 be
       -0.11194318 0.15880273 -0.044947244 -0.14929757
0000e0 03 70 27 3e 97 f4 02 3d d0 1c da bd 7d 83 98 bd
       0.16351323 0.03197154 -0.10650027 -0.074469544
0000f0 5b 26 a0 bb 5d 80 70 be 36 bc d6 3d d5 02 21 bd
       -0.004887385 -0.23486467 0.10485117 -0.03930934

running_var f4 [64]
000000 c2 28 28 3c 98 44 1b 3d 36 92 83 3c a5 e3 63 3d
       0.010263624 0.037907213 0.01606093 0.05563702
000010 9a 3f ac 3c b1 fa 86 3c 93 52 85 3d a9 af d3 3c
       0.021026421 0.01647696 0.065098904 0.025840597
000020 8d a2 a5 3c f5 a2 76 3d ea 4f e4 3c d2 9d 2c 3c
       0.020219112 0.060214 0.027870137 0.010535674
000030 d7 20 d4 3c 98 ed 60 3d dd e0 da 3c 57 47 94 3c
       0.025894566 0.054914087 0.026718551 0.018100424
000040 59 a8 90 3c 9c d9 a6 3c ad 10 d8 3c c3 19 e8 3c
       0.0176584 0.020367436 0.02637514 0.028332597
000050 61 9e 09 3c b5 55 e6 3c 1e b1 ba 3c 25 0e 0b 3d
       0.008399577 0.02811704 0.022789534 0.033949036
000060 6b 9d 08 3d 62 fe 09 3d 5e 23 57 3c f2 b8 05 3d
       0.03335325 0.033689864 0.013130991 0.03264708
000070 e2 63 cb 3c 6f 5e 64 3c 47 7b 3d 3c 1d aa 79 3c
       0.024827901 0.01393853 0.011565036 0.015238312
000080 f9 8b 1d 3d 13 9e 80 3d 77 88 94 3c b6 77 be 3c
       0.038463566 0.0628015 0.018131478 0.023250442
000090 84 db 10 3d 53 80 01 3d 78 f5 cc 3c c8 20 e3 3c
       0.035365596 0.03161652 0.025019392 0.027725592
0000a0 c6 64 41 3d 17 34 16 3d b9 f5 9a 3d 86 35 b7 3c
       0.047215246 0.03667077 0.07566399 0.02236439
0000b0 3d df 0a 3c 80 d7 a3 3c 5b ab 11 3c 07 51 7c 3c
       0.008476076 0.02000022 0.008890952 0.015400178
0000c0 d8 a8 a0 3c 36 35 48 3c 09 c5 c0 3c 49 ed 13 3d
       0.019611761 0.012219718 0.023531454 0.036114965
0000d0 73 b1 ca 3c 04 9f 1f 3c bc 4f c9 3c 32 dc 50 3c
       0.024742818 0.009742502 0.024574153 0.012747811
0000e0 5a 07 f0 3c 2f e6 4a 3c 07 04 a3 3c 0e a3 9b 3c
       0.02930038 0.012383982 0.019899381 0.018998649
0000f0 9b f0 5a 3c 53 ed 03 3d 98 ef 04 3d 1a 97 8f 3c
       0.013363029 0.032208752 0.032455057 0.017528106

weight f4 [1, 3136]
000000 67 63 b5 bc 04 63 12 bb d6 e5 dd bc fa 18 e9 bc
       -0.022142125 -0.002233685 -0.027087133 -0.028454293
000010 ed a1 9e bc d6 f1 47 bc 95 6c e0 bc cd 96 74 bc
       -0.019364322 -0.012203654 -0.027395526 -0.014928532
000020 11 6c d5 bc 6e 99 9b 3b d4 8b 99 bc 6c 2c a1 bb
       -0.026052507 0.004748515 -0.018743433 -0.0049186256
000030 96 4d 47 bc c0 c8 03 3c 8f 45 22 bc 84 9f 98 bc
       -0.012164494 0.008043468 -0.009904279 -0.01863075
000040 8a de 2d bb 3f 2e 8a 3c c0 5e a9 3c c5 bd 45 3c
       -0.0026530349 0.016867755 0.020675063 0.01206917
000050 69 2a 29 bb f4 88 0c bc 7b 8f a6 bc 4f ed 10 3c
       -0.0025812632 -0.008577574 -0.020332089 0.008845641
000060 cd 6e e8 3b bf 3d 36 3b 79 82 c5 3b ba 82 1b 3c
       0.0070932866 0.00278078 0.0060275164 0.009491617
000070 67 a7 66 bc c9 15 32 ba da 84 83 ba 7d b6 8e 3c
       -0.014077998 -0.00067934074 -0.00100341 0.017421002
000080 e0 a7 8c 3c 5e 6f f0 3b 8a e2 6c 3c d5 73 c5 bb
       0.017169893 0.0073374948 0.014458308 -0.006025771
000090 48 6b 2c bc cb 78 88 bb 8a 94 65 bc d3 d7 90 3a
       -0.010523625 -0.0041647903 -0.014012465 0.0011050649
0000a0 2d 36 84 3c 4e cc 06 bc 26 d0 11 3c c9 14 2b bc
       0.016139114 -0.008227421 0.008899724 -0.010441967
0000b0 12 38 2e 3b 3e 01 b0 bb cf 2d 69 3c 51 71 0b bb
       0.0026583713 -0.005371242 0.014232113 -0.0021277259
0000c0 ad 00 b3 bc 9e a9 80 3a 71 57 e7 3b be 4f 92 bc
       -0.021850908 0.0009816175 0.0070599844 -0.01786029
0000d0 be 96 4e bc 2d 3e 66 bb 65 da 64 3b ad 8f d0 bb
       -0.012609182 -0.0035132274 0.0034920212 -0.0063647837
0000e0 3d a2 66 3c d8 5e 61 39 60 94 7e 39 83 da d2 3b
       0.014076767 0.00021493004 0.00024278602 0.00643474
0000f0 ac 97 e6 39 6d b0 96 bc ad 70 65 bc 40 21 05 3c
       0.00043982023 -0.018394673 -0.014003915 0.008125603
000100 2f 77 67 bc 81 fa 06 3c 9e f0 a0 3b 2a fc a9 ba
       -0.014127537 0.008238436 0.0049114963 -0.0012968828
000110 b6 04 86 3b 5d 2b 82 bc 32 20 3d 3b e9 72 d2 bb
       0.004089917 -0.015889818 0.0028858301 -0.0064223898
000120 7f 2d 05 bc b1 d8 72 3c c2 4b ce 3a 68 69 d5 bb
       -0.008128523 0.014822171 0.001573913 -0.0065128095
000130 a0 82 09 bc ad 13 92 3b a2 01 88 3a fe 1c 3b 3b
       -0.00839296 0.004457912 0.0010376463 0.0028551216
000140 1d 29 6f 3c 81 b3 50 3a 30 2f 0f bc 9a 7b 92 3b
       0.0145972045 0.00079613185 -0.008739278 0.004470301
000150 01 8d 19 bc 06 5f 94 bc da 08 88 bc c8 42 12 3b
       -0.009371997 -0.018111717 -0.016605783 0.0022317637
000160 d8 3f 1c 39 b8 bc a0 ba a2 99 9c bb cd a5 4e bb
       0.00014901103 -0.0012263274 -0.0047790566 -0.003153193
000170 bc 58 50 bc b6 f1 14 bc d8 f0 8f 3b e8 d3 30 bc
       -0.012716468 -0.0090908315 0.0043927245 -0.01079271
000180 79 72 ab 3a 5f d2 27 bb 46 cd bd bc 8d 80 00 b9
       0.001308038 -0.0025607569 -0.023169171 -0.0001225492
000190 43 f2 2c bc 8f 55 c6 bc 0e 66 d0 bc 66 0f 3d bc
       -0.010555807 -0.02421072 -0.025439288 -0.011539316
0001a0 86 e0 61 3a 40 22 8b 3c 60 06 40 bc c2 df 90 bc
       0.00086165254 0.016984105 -0.01172027 -0.017684821
0001b0 e3 ac 6c bc 2a 65 dc 3b 6e 83 7b 3c 38 f2 12 bc
       -0.014445516 0.006725927 0.0153511595 -0.008968882
0001c0 4f b3 43 bc 52 80 91 b9 0c 06 19 3b 3a 8c 3d bc
       -0.011944606 -0.0002775216 0.0023349551 -0.011569077
0001d0 50 8c 6d bb e1 23 11 3c a8 00 19 ba 46 95 25 3c
       -0.0036246963 0.008858652 -0.00058365846 0.01010639
0001e0 f9 7e 66 bc a7 9b d8 bb 84 49 25 3c a9 a2 90 3a
       -0.014068359 -0.006610352 0.010088328 0.0011034805
0001f0 1c 57 9d 3c cf d5 92 ba 2d e2 66 bc 04 21 b2 bc
       0.019206576 -0.0011202636 -0.01409201 -0.021744259
000200 08 5a 31 3c aa 10 06 bb 5e 89 7b 3c 50 da c6 39
       0.010824688 -0.002045671 0.015352575 0.00037928158
000210 0e b7 0b 3c 07 48 64 bc 72 69 0f 3c 88 bb 0c bc
       0.00852753 -0.013933188 0.008753167 -0.008589633
000220 20 12 23 3c 2a c8 05 3c 9c bc 76 3c 68 93 a5 bb
       0.009953052 0.008165399 0.015059616 -0.0050529726
000230 56 83 5d bc b5 3b 89 bb d2 53 d9 bb de 84 52 bc
       -0.013520082 -0.004188026 -0.0066323066 -0.012849061
000240 bc eb 3b 3c e0 12 ba 3b 64 24 15 bc cc a5 f3 3b
       0.011469778 0.0056785196 -0.0091029145 0.007435536
000250 e0 f6 68 3b 13 5b 76 3b db 6e 5f 3c 79 35 9d 3a
       0.003554754 0.0037590906 0.01363727 0.0011994086
000260 6b f5 39 3b f6 b5 24 3b 74 dd 43 3c 34 53 22 3a
       0.002837504 0.0025132871 0.011954654 0.0006192208
000270 49 ba 51 bc 41 60 95 3b 74 ef 10 3c e9 9e 49 3c
       -0.0128007615 0.0045585935 0.008846153 0.012305954
000280 ee 69 e7 bb b1 3c c5 ba 73 0b 7e bc 02 4e 48 bc
       -0.0070621883 -0.0015047995 -0.015505659 -0.01222563
000290 03 80 30 38 e5 3e 90 bb 89 b8 a5 3a 82 8b d2 bb
       4.208089e-05 -0.004402029 0.0012643497 -0.006425322
0002a0 f6 ed 59 3b d7 a2 2a 3c d2 89 5c bb de bb 14 bc
       0.0033253408 0.010414801 -0.0033651483 -0.009077994
0002b0 00 8e 44 3c 09 f2 b7 bb 51 c8 7f ba 2b 90 a2 bc
       0.011996746 -0.0056135696 -0.00097573275 -0.019844135
0002c0 1d a8 44 3c 6a e2 68 3b dd 44 16 3c ef c9 47 bb
       0.012002972 0.0035535344 0.009171692 -0.0030485352
0002d0 7c 86 c4 b9 5d 0b 1d 3b 0b d4 91 bc 44 af a6 bb
       -0.00037484232 0.0023963072 -0.017801305 -0.0050868113
0002e0 22 e4 ff bb 62 9e 02 3c 6a 35 26 3c 33 f7 fb bb
       -0.007809178 0.007972332 0.010144571 -0.0076893806
0002f0 b7 47 ed bb 92 ce 79 bc 9e 38 02 3c 97 8b c3 bb
       -0.007241215 -0.015247004 0.007948069 -0.005967568
000300 42 f3 ad bb f2 b2 6b 3c 77 d0 2e 3c 22 85 c5 3b
       -0.0053085396 0.014385926 0.010669819 0.0060278336
000310 b9 71 85 3c ea 09 11 bc 4e 96 b2 3c d2 81 45 ba
       0.016289579 -0.008852461 0.021800186 -0.00075342983
000320 69 55 56 3c 80 96 dc bb fa 84 a3 3b 7d aa b7 3b
       0.013081887 -0.006731808 0.0049902173 0.0056050406
000330 45 88 aa 3a 53 48 03 bc e5 74 37 bc 2c c0 0f 3c
       0.0013010582 -0.008012849 -0.011197303 0.008773845
000340 9c 9a 6e bc 2d 5e 80 3a f1 08 bd 3c 7a 6a d3 bb
       -0.014563229 0.0009793692 0.023075553 -0.006451902
000350 86 a2 83 bc a8 bc a2 b9 22 4e 88 3b 57 c0 77 bc
       -0.016068708 -0.00031039608 0.004159705 -0.015121541
000360 63 44 c9 bb 48 98 f1 ba ce 0a 6c bc 90 de 3e bc
       -0.0061421855 -0.0018432224 -0.014406873 -0.011649743
000370 7d d8 52 bc c0 f5 19 bc d1 0a 39 3c a4 9a 1f 38
       -0.012868998 -0.00939697 0.011294083 3.8052574e-05
000380 ea 3a 2b 3c 70 14 c4 bb 20 0e b9 3b e6 e4 99 3b
       0.010451058 -0.0059838817 0.005647436 0.0046964763
000390 67 63 8e 3b 76 97 23 bc 94 79 09 3c 2e 6a 32 3c
       0.004345346 -0.009984842 0.008390803 0.010889573
0003a0 85 f4 c0 3b 4c 35 0e 3c d1 22 59 bc 08 ee e7 3b
       0.005888524 0.008679699 -0.01325293 0.007077936
0003b0 06 72 1e bc 59 99 cb 3a dc a6 7e bb 32 e5 24 bb
       -0.00967074 0.0015533372 -0.003885678 -0.0025161025
0003c0 26 c5 04 3c da 8b eb 3b 82 03 39 bc c3 1c 3b bc
       0.0081036445 0.0071883025 -0.01129234 -0.011420432
0003d0 91 45 2c 3c be c7 0b ba e6 7c 16 3c 17 8a 2d 3a
       0.010514633 -0.0005332193 0.009185052 0.0006620003
0003e0 95 d8 11 3b ff 30 4d 39 54 a0 2e bc fb 25 52 bc
       0.0022254337 0.00019568576 -0.010658342 -0.012826438
0003f0 33 60 37 bb 7a 52 e3 3b dc c6 31 3b 16 e6 5a bb
       -0.0027980923 0.006937322 0.0027126586 -0.0033401302
